…
625/625 [==============================] - 116s 185ms/step - loss: 0.3158 - acc: 0.9068 - val_loss: 0.0432 - val_acc: 0.9939
Epoch 49/50
625/625 [==============================] - 116s 186ms/step - loss: 0.3039 - acc: 0.9111 - val_loss: 0.0394 - val_acc: 0.9953
Epoch 50/50
625/625 [==============================] - 115s 184ms/step - loss: 0.3151 - acc: 0.9045 - val_loss: 0.0528 - val_acc: 0.9890
_________________________________________________________________
Layer (type)                 Output Shape              Param #
=================================================================
conv2d_1 (Conv2D)            (None, 220, 220, 32)      2432
_________________________________________________________________
max_pooling2d_1 (MaxPooling2 (None, 110, 110, 32)      0
_________________________________________________________________
conv2d_2 (Conv2D)            (None, 106, 106, 64)      51264
_________________________________________________________________
max_pooling2d_2 (MaxPooling2 (None, 53, 53, 64)        0
_________________________________________________________________
conv2d_3 (Conv2D)            (None, 49, 49, 128)       204928
_________________________________________________________________
max_pooling2d_3 (MaxPooling2 (None, 24, 24, 128)       0
_________________________________________________________________
conv2d_4 (Conv2D)            (None, 20, 20, 256)       819456
_________________________________________________________________
dropout_1 (Dropout)          (None, 20, 20, 256)       0
_________________________________________________________________
max_pooling2d_4 (MaxPooling2 (None, 10, 10, 256)       0
_________________________________________________________________
flatten_1 (Flatten)          (None, 25600)             0
_________________________________________________________________
dense_1 (Dense)              (None, 128)               3276928
_________________________________________________________________
dropout_2 (Dropout)          (None, 128)               0
_________________________________________________________________
dense_2 (Dense)              (None, 128)               16512
_________________________________________________________________
dropout_3 (Dropout)          (None, 128)               0
_________________________________________________________________
dense_3 (Dense)              (None, 20)                2580
=================================================================
Total params: 4,374,100
Trainable params: 4,374,100
Non-trainable params: 0
_________________________________________________________________