…
391/390 [==============================] - 181s 463ms/step - loss: 0.6498 - acc: 0.7974 - val_loss: 0.1887 - val_acc: 0.9617
Epoch 69/70
391/390 [==============================] - 185s 473ms/step - loss: 0.6474 - acc: 0.8015 - val_loss: 0.1938 - val_acc: 0.9580
Epoch 70/70
391/390 [==============================] - 260s 665ms/step - loss: 0.6380 - acc: 0.8014 - val_loss: 0.1804 - val_acc: 0.9615
_________________________________________________________________
Layer (type)                 Output Shape              Param #
=================================================================
conv2d_1 (Conv2D)            (None, 96, 96, 32)        2432
_________________________________________________________________
max_pooling2d_1 (MaxPooling2 (None, 48, 48, 32)        0
_________________________________________________________________
conv2d_2 (Conv2D)            (None, 44, 44, 64)        51264
_________________________________________________________________
max_pooling2d_2 (MaxPooling2 (None, 22, 22, 64)        0
_________________________________________________________________
conv2d_3 (Conv2D)            (None, 18, 18, 128)       204928
_________________________________________________________________
max_pooling2d_3 (MaxPooling2 (None, 9, 9, 128)         0
_________________________________________________________________
conv2d_4 (Conv2D)            (None, 5, 5, 256)         819456
_________________________________________________________________
dropout_1 (Dropout)          (None, 5, 5, 256)         0
_________________________________________________________________
max_pooling2d_4 (MaxPooling2 (None, 2, 2, 256)         0
_________________________________________________________________
flatten_1 (Flatten)          (None, 1024)              0
_________________________________________________________________
dense_1 (Dense)              (None, 128)               131200
_________________________________________________________________
dropout_2 (Dropout)          (None, 128)               0
_________________________________________________________________
dense_2 (Dense)              (None, 128)               16512
_________________________________________________________________
dropout_3 (Dropout)          (None, 128)               0
_________________________________________________________________
dense_3 (Dense)              (None, 50)                6450
=================================================================
Total params: 1,232,242
Trainable params: 1,232,242
Non-trainable params: 0
_________________________________________________________________