…
450/450 [==============================] - 55s 123ms/step - loss: 0.4331 - acc: 0.8637 - val_loss: 0.0973 - val_acc: 0.9862
Epoch 49/50
450/450 [==============================] - 55s 123ms/step - loss: 0.4404 - acc: 0.8617 - val_loss: 0.0972 - val_acc: 0.9831
Epoch 50/50
450/450 [==============================] - 55s 123ms/step - loss: 0.4171 - acc: 0.8719 - val_loss: 0.0781 - val_acc: 0.9878
_________________________________________________________________
Layer (type)                 Output Shape              Param #
=================================================================
conv2d_1 (Conv2D)            (None, 220, 220, 32)      2432
_________________________________________________________________
max_pooling2d_1 (MaxPooling2 (None, 110, 110, 32)      0
_________________________________________________________________
conv2d_2 (Conv2D)            (None, 106, 106, 64)      51264
_________________________________________________________________
max_pooling2d_2 (MaxPooling2 (None, 53, 53, 64)        0
_________________________________________________________________
conv2d_3 (Conv2D)            (None, 49, 49, 128)       204928
_________________________________________________________________
max_pooling2d_3 (MaxPooling2 (None, 24, 24, 128)       0
_________________________________________________________________
conv2d_4 (Conv2D)            (None, 20, 20, 256)       819456
_________________________________________________________________
dropout_1 (Dropout)          (None, 20, 20, 256)       0
_________________________________________________________________
max_pooling2d_4 (MaxPooling2 (None, 10, 10, 256)       0
_________________________________________________________________
flatten_1 (Flatten)          (None, 25600)             0
_________________________________________________________________
dense_1 (Dense)              (None, 128)               3276928
_________________________________________________________________
dropout_2 (Dropout)          (None, 128)               0
_________________________________________________________________
dense_2 (Dense)              (None, 128)               16512
_________________________________________________________________
dropout_3 (Dropout)          (None, 128)               0
_________________________________________________________________
dense_3 (Dense)              (None, 20)                2580
=================================================================
Total params: 4,374,100
Trainable params: 4,374,100
Non-trainable params: 0